models/seq2seq-20210107-164232.pt (torch, 40991 bytes, 6 tensors)

weight_ih_l0 f4 [64, 128]
000000 c1 ac aa 3d 0f eb ff 3d 5d 76 54 be 54 b6 ad 3d
       0.083337314 0.12496006 -0.20748277 0.08482042
000010 63 fa 54 3e fe 82 3d be b1 ad 30 3e db f1 35 3e
       0.2079864 -0.18507001 0.17253758 0.17768042
000020 e0 1f 48 be 18 76 4d 3e f4 1f cb bd 61 b5 34 3e
       -0.1954341 0.2006458 -0.09918204 0.17647316
000030 e9 35 5a 3e fb 5a 13 3e 54 ca b8 3c d3 41 ad bd
       0.21309628 0.14390175 0.022557415 -0.084598206
000040 37 a1 0b be 89 12 ed bd 37 11 a6 bc 81 1b 04 be
       -0.13635717 -0.11575801 -0.02027188 -0.12901117
000050 64 e6 95 3d db f7 59 3e 37 c9 59 3e b1 19 14 3e
       0.07319334 0.21285956 0.21268164 0.14462925
000060 45 27 45 3c fd 5a 13 3e da 67 f0 3d df c4 8b bd
       0.012033288 0.14390178 0.11738558 -0.068246596
000070 80 2f 4f bd 08 4b d0 3c c6 f1 7e 3e 03 9b 65 3e
       -0.05058241 0.025426403 0.24896917 0.22422414
000080 a2 5c 83 3d 56 54 8b 3d 3d 49 80 3e 35 6f cd ba
       0.06414153 0.06803195 0.25055876 -0.0015673401
000090 65 e8 5d 3e 11 e4 ea 3d 05 2a 4c 3d 78 b2 34 3e
       0.21670683 0.114692815 0.04984476 0.17646205
0000a0 c9 76 3d 3e e6 0e 14 be f9 0d 24 be d4 ae 12 3e
       0.18502344 -0.14458808 -0.16020955 0.14324504
0000b0 5b b8 25 3e 50 da 5f 3e 03 5b 22 be 69 cc 59 3e
       0.16183607 0.21860623 -0.1585503 0.21269383
0000c0 81 9d 2c be a2 42 3a 3e 83 6d b6 bd e5 21 f8 bd
       -0.16856958 0.18189481 -0.089076065 -0.1211584
0000d0 41 43 2b be 03 38 88 bd 3b b6 ab bd 1b 1e c6 3a
       -0.16724874 -0.066513084 -0.08384367 0.0015115173
0000e0 ac 72 ed bd f3 cd 64 3e d5 03 13 3e 90 18 a2 3d
       -0.115941375 0.22344188 0.1435693 0.07914841
0000f0 0e 50 06 3c d3 50 1e 3d 86 55 77 be 98 5b b9 bd
       0.008197797 0.0386513 -0.24153718 -0.09050673
000100 66 f7 37 be c0 ce 05 3c b3 6a 9c bb 90 06 0a bc
       -0.17965469 0.008166969 -0.0047734617 -0.008424416
000110 ae 42 cd 3b 61 d1 e1 3d f7 f0 9d bd 30 87 e4 bd
       0.0062640524 0.11026264 -0.07711976 -0.111585975
000120 2c cb 8a 3d 5e 76 28 be 95 b8 f5 3d dd 64 15 be
       0.06777033 -0.16451403 0.11998097 -0.14589258
000130 bd a0 bf 3d 8c 4a 74 3e 26 c5 08 be 85 b7 5c 3d
       0.0935683 0.23856562 -0.13356456 0.053885955
000140 46 64 bb bd 85 c8 42 3d 9a b1 fa bd 5f b4 56 3e
       -0.09149985 0.04755451 -0.12240906 0.20967244
000150 d9 a9 c1 bd 47 05 27 be 5c af 04 3e 46 e1 7b be
       -0.09456224 -0.16310607 0.1295752 -0.24597654
000160 25 c9 c5 3d d7 4b 11 3e d0 19 f3 bd ac 13 03 3e
       0.09657506 0.14189087 -0.11870158 0.12800473
000170 dd e7 84 bd ed 11 ff 3d cf 5d f7 3b a9 d4 dc bc
       -0.06489537 0.12454591 0.0075490247 -0.026956873
000180 2d 18 c9 3d 20 7b 68 be 0c cb f5 bd b6 55 d9 bd
       0.09819064 -0.22703218 -0.12001619 -0.10612051
000190 82 48 10 3d 4e 6e 68 be 7d 29 28 be 4f 8b b0 3d
       0.0352254 -0.22698328 -0.16422077 0.08620321
0001a0 ea 9e 56 be fc 02 a7 3c b0 fd 14 3e 9a 0e 16 be
       -0.20959058 0.020387165 0.14549899 -0.14654008
0001b0 f4 23 a9 bc c3 33 e6 bd 47 eb a9 bc 42 05 74 3e
       -0.020647027 -0.112403415 -0.020742072 0.2383013
0001c0 8d 03 7f 3e 1d fc 4e 3e 7f d8 08 3e f4 1c 28 3e
       0.24903698 0.20213361 0.13363837 0.16417295
0001d0 87 b2 f3 bd 92 c5 14 3d d4 d0 bf 3c e6 a2 d0 3d
       -0.11899286 0.03632123 0.023415007 0.101873204
0001e0 dc 91 4c 3e 9a fa 4e be 8c 2f 5d be 07 23 af 3d
       0.19977516 -0.20212784 -0.21600169 0.08551603
0001f0 8b d2 20 bc 30 52 0e 3e d4 06 95 3c a7 9d c2 bd
       -0.009815822 0.1389854 0.018191732 -0.09502726
000200 24 e8 79 3e 1a 6d 6d be a0 d6 c3 bd b4 19 b9 bd
       0.24404961 -0.2318615 -0.09562421 -0.090381056
000210 cd 68 f5 bd c0 03 e3 3c 94 14 17 3e fb 9e f3 3d
       -0.1198288 0.02771175 0.14753944 0.118955575
000220 4e 03 7b be 07 e4 bf bd 3b fe 59 3e 72 92 60 be
       -0.2451298 -0.09369665 0.21288387 -0.21930864
000230 a2 4f 44 3e a5 75 02 3e 73 7e 39 3d b6 b9 10 3e
       0.19171003 0.1274019 0.045286607 0.14133343
000240 06 42 35 3e cc a3 66 be 16 53 83 3d 7a 39 8c bd
       0.17700967 -0.22523421 0.06412332 -0.068469
000250 ee 0a c3 3d e8 d4 07 bc 20 17 36 3e 7e 72 4a be
       0.09523569 -0.008290507 0.17782259 -0.19770238
000260 ea d1 02 3e ef db 17 3e 13 e9 3d 3e 33 a0 04 be
       0.12775388 0.14829992 0.18545942 -0.12951736
000270 06 fd a8 3d b6 0b 62 be 65 36 5d 3e 57 54 ad 3c
       0.082513854 -0.2207478 0.21602781 0.02115838
000280 9a 38 94 3d 5d dd 1d 3e a0 a1 72 3d 2c 77 00 3e
       0.072373584 0.15416475 0.05923617 0.1254546
000290 2c e7 33 be fa a4 2b 3e 48 af 56 3e 3b d2 bd bd
       -0.17568654 0.16762152 0.20965302 -0.09268614
0002a0 a9 9b 59 3e 10 7c 78 be 7c 01 08 be fa d4 48 3e
       0.21250786 -0.24266076 -0.13281816 0.19612494
0002b0 79 67 11 be 44 b9 e1 3d d9 22 5b be 0b 60 15 3e
       -0.14199628 0.11021665 -0.21400012 0.14587419
0002c0 63 48 89 3e 5e a9 37 be 81 0c 1d be d0 07 05 3e
       0.2681304 -0.17935702 -0.15336801 0.12991261
0002d0 9a d5 0a 3d 47 c2 35 3e 8e b7 c3 ba 1f 39 03 bc
       0.033895113 0.17749892 -0.0014932023 -0.008009224
0002e0 9c 89 f6 bd ed 25 7c bd 5c 84 bc 3c c1 ff dd 3d
       -0.12037966 -0.061559606 0.023012333 0.10839797
0002f0 fa 48 45 be 2e cd 65 bd 38 0e 12 be 40 11 66 3e
       -0.1926612 -0.056103878 -0.14263237 0.22467518
000300 be fc 2e 3a 7c 52 19 3e 3a 68 08 be e5 39 24 bd
       0.0006675235 0.14972872 -0.1332101 -0.040094275
000310 41 c8 6b 3e 25 ca 63 3e 6f 48 74 bd 66 ac 94 bc
       0.2302561 0.22245081 -0.05963939 -0.018148612
000320 72 07 6e be 3e 66 73 be a5 14 21 3e a4 c6 17 bb
       -0.23245028 -0.23769471 0.15730532 -0.002315917
000330 20 85 b3 bc 00 0b 87 3b 80 87 2a 3d 17 5e 25 3d
       -0.021914065 0.0041211843 0.04163313 0.040372934
000340 1f 70 c2 bd ea dd 1b 3e dc 6c 48 3e 3a 7a 24 3e
       -0.09494042 0.15221372 0.19572777 0.1606225
000350 70 90 07 bd de 63 be 3b a2 c9 65 be 3c 8b 4b 3e
       -0.03309673 0.005810245 -0.22440198 0.19877332
000360 dd 2d 37 3e 64 22 a2 bd cc 69 d9 3d 1f 54 82 3d
       0.17888589 -0.07916716 0.10615882 0.06363701
000370 52 56 a5 3c 9e 8d 8c bb be 5b 0c 3d 31 4f 0c be
       0.020182762 -0.004289343 0.03426718 -0.13702084
000380 ce 51 b6 3c b7 df 6f bd e0 95 2c 3e 34 dc 96 3d
       0.022255804 -0.05856296 0.16854048 0.07366219
000390 35 bd 5c be 19 d1 bd bd 76 e1 93 3d 79 a8 71 bd
       -0.21556552 -0.09268398 0.07220738 -0.05899856
0003a0 70 39 8c bc c6 9e 7e 3e b6 22 a1 3d 01 cc 37 be
       -0.017117232 0.24865255 0.07867949 -0.17948915
0003b0 26 97 38 bc cc 90 0f 3c 3a 1e 76 3d 59 89 7c 3e
       -0.011266505 0.00876255 0.06008742 0.24661769
0003c0 e8 a6 2d 3d a4 4a 4b be 9b a3 ab bd ed 2e 4a be
       0.042395502 -0.19852692 -0.08380815 -0.19744463
0003d0 41 89 e8 3c 46 c9 0b 3e 67 48 12 bd a9 c7 24 3e
       0.02838576 0.13650998 -0.03571358 0.1609179
0003e0 e2 6f a2 bc 4f 46 1c 3e 38 bf 19 be 5f be bc bd
       -0.01982874 0.15261196 -0.1501435 -0.09215998
0003f0 48 06 45 be 0f 08 5c 3e 9e ba 72 be 12 b0 c8 3d
       -0.19240677 0.21487449 -0.23704001 0.09799208

weight_hh_l0 f4 [64, 16]
000000 fc 1c 5a be 72 18 cd bb da 40 69 3e d1 25 37 3e
       -0.21300119 -0.0062590176 0.22778645 0.1788552
000010 90 f9 68 be be 0e 02 be 49 9d 38 be f5 09 8f 3d
       -0.2275145 -0.12700936 -0.1802875 0.06984321
000020 fe 6a ed bd b6 60 4d 3e bd b0 34 be 3c c9 8f 3b
       -0.11592673 0.20056424 -0.17645545 0.0043880027
000030 eb cb 5c be 75 44 a9 3d ac 2b 77 bd 44 41 6f 3d
       -0.21562164 0.0826501 -0.060344383 0.05841185
000040 be 46 02 3e 9a 6c 4e be f4 a9 26 be 6d 09 4e be
       0.12722299 -0.20158616 -0.1627577 -0.20120783
000050 49 dc 05 3e 23 ba 70 3e b6 31 01 be 77 08 48 be
       0.13072313 0.23508506 -0.1261662 -0.19534479
000060 df 22 b6 3c 95 ae f7 3c d8 3c 76 be 9c ba af 3d
       0.022233425 0.030234614 -0.24046648 0.08580515
000070 d4 d4 2d 3e 43 24 51 be f7 80 3f 3e 25 58 9e bd
       0.16975719 -0.20423989 0.1870154 -0.07731656
000080 c8 fd a7 bc 94 4b 46 bd eb ce 32 be bb fa 68 3d
       -0.020506755 -0.04841192 -0.17461745 0.05687974
000090 35 41 00 bc 89 ad ef 3d 53 95 a9 3d 85 9d 29 3e
       -0.007828047 0.11703021 0.082804345 0.16563995
0000a0 c3 7d 04 3e 41 71 6b be 62 cc 46 bc 21 4a 8f bc
       0.129386 -0.22992422 -0.01213369 -0.017491402
0000b0 c7 8e 2e be 1d d1 5b be dd f5 5f 3e 65 05 88 3c
       -0.17046653 -0.21466489 0.21871133 0.016604135
0000c0 e9 75 35 3e 12 c5 6b be 6d f9 04 be 0c ea ee bc
       0.1772076 -0.23024395 -0.12985773 -0.029164337
0000d0 09 8a ee 3d 26 61 c8 3d f5 35 27 be fa 50 0a 3e
       0.11647422 0.097841546 -0.16329177 0.13507453
0000e0 12 b5 51 3d 44 44 9a bd e2 97 0f be 8d 35 34 3e
       0.051198073 -0.07532552 -0.14022782 0.17598553
0000f0 f1 9d 48 be af 57 49 be 28 56 9b 3d 82 8b d3 3d
       -0.195915 -0.19662355 0.075847924 0.103293434
000100 5b 82 00 3e 1f 8f 42 be fa dc 4a be 29 52 19 be
       0.12549727 -0.18999909 -0.19810858 -0.14972748
000110 0a 82 89 bd 2d b3 1a be 46 11 f4 3d e4 58 60 3d
       -0.06714256 -0.15107413 0.11917357 0.054772273
000120 0a eb db bd 51 75 6f bd 0b d3 ef 3d 14 a1 da bd
       -0.107381895 -0.05846149 0.11710175 -0.106752545
000130 eb 97 61 3e 41 ae e7 bd a3 f3 52 be 4f 7e 70 3d
       0.22030608 -0.11312533 -0.20600753 0.058714207
000140 72 a1 14 be bc e0 31 3d 2d 3c 4f be b0 e5 91 bd
       -0.14514711 0.043427214 -0.20237799 -0.071238875
000150 4b 3a fd 3d 06 a1 92 bc 11 1a 11 3d f6 64 53 be
       0.12364634 -0.017899048 0.03542525 -0.20643982
000160 88 c1 41 3e 8f 84 51 be 7b 79 0d 3d 40 27 40 be
       0.18921483 -0.20460723 0.03453968 -0.18764973
000170 9b 33 07 be 18 22 4d 3e 37 2f 0b be fa 64 5c be
       -0.1320328 0.20032537 -0.1359223 -0.21522895
000180 db 79 6e be 23 3c 09 be 1a 0a f8 3d 04 99 40 be
       -0.23288672 -0.13401847 0.12111302 -0.18808371
000190 79 6e f4 3d 6b f0 ce bd 00 f0 03 3e aa 0d 7a be
       0.119351335 -0.1010445 0.12884521 -0.24419275
0001a0 49 af 0f be 7b 9c e6 bd 70 d9 1d 3e 9e 35 e3 bd
       -0.1403171 -0.11260315 0.15414977 -0.11094211
0001b0 4a 1a 0a bd 99 a2 e4 bd 6f 9a 2a 3e 38 d8 8c bd
       -0.033716477 -0.111638255 0.16660474 -0.06877178
0001c0 58 f9 35 3e 76 14 1d 3e 83 8a 88 bd 3a 52 5c be
       0.17770898 0.15339836 -0.06667044 -0.21515742
0001d0 c3 b4 95 bd 41 c6 32 bd 93 f4 3b 3e 43 8d 02 3e
       -0.07309868 -0.0436461 0.18355016 0.127492
0001e0 83 f0 0c 3e 58 58 e2 3d 72 60 58 3e fe 9d 8a bd
       0.13763623 0.110520065 0.21130541 -0.06768416
0001f0 b0 1f cf 3d f6 9f 75 3e b3 cd 4f 3e 1e 4c ce bd
       0.10113466 0.23986802 0.20293312 -0.10073112
000200 4d 52 68 3e 75 ce 4c 3e ab df 7c be f3 ff 75 3d
       0.22687645 0.20000632 -0.24694698 0.060058545
000210 fc bb 25 3e eb 3f 80 be 82 de cd bd 30 18 98 3d
       0.16184992 -0.25048766 -0.100522056 0.074264884
000220 ed bf 34 be b8 fa 4f bc 59 d7 53 be f4 05 0c be
       -0.17651339 -0.012694053 -0.20687617 -0.13674146
000230 1a 00 8a bd 0e 8a 74 be 6e e2 8b bc 0d 65 09 bd
       -0.067383006 -0.23880789 -0.017075744 -0.033543635
000240 f2 64 cb bc 32 70 01 be 42 17 2f 39 74 05 1f be
       -0.024828408 -0.12640455 0.00016697965 -0.15529424
000250 38 07 3d be c6 ad d2 bd a0 cf 4a be 4b 05 37 3e
       -0.18459785 -0.10287051 -0.19805765 0.17873113
000260 f9 57 1c be 48 dc c4 bd d9 62 d8 3d cf 85 42 3e
       -0.15267934 -0.09612328 0.10565729 0.18996356
000270 7d a0 18 bd 64 3e 72 bd ef 9d 89 bd 68 78 ca bd
       -0.03726243 -0.05914153 -0.067195766 -0.09886247
000280 df 08 81 3e 29 4f 3d 3d 10 56 ab 3b 58 e2 b2 3d
       0.2520208 0.04621807 0.0052287653 0.08734578
000290 08 7d 77 3e 4f ce 07 3d 80 14 31 be e4 93 50 3e
       0.2416879 0.033155736 -0.17292976 0.20368916
0002a0 1f 49 c3 3d c2 e3 4a 3e 16 2c 42 3e 43 56 88 3d
       0.09535431 0.19813445 0.1896213 0.06657078
0002b0 58 dd 5f be b0 77 a4 bd 0b 0d 5e be b6 3b 0c be
       -0.2186178 -0.08030641 -0.21684663 -0.13694653
0002c0 d7 71 10 be 50 c8 37 bd d0 6d 09 3e 64 58 c6 3d
       -0.14105926 -0.044868767 0.13420796 0.09684828
0002d0 3f 31 50 3e 5b c3 65 3d 95 61 f8 3d 9c 49 3c be
       0.20331286 0.05609451 0.12127987 -0.18387455
0002e0 04 6e 7c 3e d3 21 7a 3e c8 8f 9d 3c 08 3e 11 bc
       0.24651343 0.24426965 0.0192336 -0.008864887
0002f0 0c 76 d1 3d 92 1b fa 3b 63 6d 38 be 8e c4 4a be
       0.10227594 0.007632681 -0.18010478 -0.19801542
000300 17 70 17 be ea 84 59 be fe 18 d2 3d 1c 63 dd 3c
       -0.14788853 -0.21242109 0.10258673 0.027024798
000310 19 00 43 be 47 bb 84 be 49 79 f4 bc 6b da 20 be
       -0.19043006 -0.2592413 -0.02984299 -0.1570832
000320 8b 72 4f 3d 0f 60 67 3e c6 ec 4d bb c7 85 f1 3d
       0.050646346 0.22595237 -0.0031421646 0.11793094
000330 3f 16 03 3e b5 7c 05 3d 76 a8 0d 3e 03 ec 38 be
       0.12801455 0.032589633 0.13833794 -0.18058781
000340 4a 36 62 be 1b d5 55 3e 41 11 4e be 9a 0f 7b bd
       -0.22091022 0.20882075 -0.2012377 -0.061294176
000350 f1 1e 29 bc af 00 50 bc 2e 1c d5 ba 1e af 86 3c
       -0.010322318 -0.0126954755 -0.0016259009 0.016440924
000360 e3 9c 13 3e 1c aa ce bd 39 f9 49 be 60 18 42 bd
       0.14415316 -0.100910395 -0.19723977 -0.047386527
000370 3a 04 5a be c5 ec 00 bd de 91 08 be a3 e8 96 3d
       -0.21290675 -0.0314758 -0.13336894 0.07368591
000380 a6 4d 5e 3e 5a c1 32 3e 4d 16 6d bd db e4 46 3e
       0.21709308 0.1745657 -0.057882596 0.19423239
000390 c0 6d 26 3e f7 69 04 be 94 28 f3 b8 ef 31 76 3e
       0.16252804 -0.12931047 -0.00011594701 0.24042486
0003a0 da 11 5b 3e cd 83 75 bd c5 aa 8f 3d 28 48 2c be
       0.21393529 -0.05994015 0.070149936 -0.168244
0003b0 e4 db b6 3c 03 34 0b be 33 c8 58 3d b1 1d fa 3d
       0.022321649 -0.1359406 0.0529253 0.122126944
0003c0 9a 11 79 bb 19 01 c9 bd 42 47 02 3d bb 84 d6 3d
       -0.0038004876 -0.098146625 0.031806238 0.10474535
0003d0 6c 3d e9 bd 10 ae a2 3d 29 f9 53 3e c8 96 43 3c
       -0.113886684 0.07943356 0.20700516 0.0119378045
0003e0 89 02 59 3d 4a 51 ff bd 23 2d e5 3d 43 8d 17 be
       0.052980933 -0.124666765 0.1119025 -0.14799981
0003f0 cb 01 43 3d 9d 22 71 3e 98 2a f6 bd 82 46 63 be
       0.04760913 0.2354836 -0.12019843 -0.22194865

bias_ih_l0 f4 [64]
000000 d0 ff 8b bc a1 4e 77 3e b4 79 59 3e 4b a9 2c 3e
       -0.017089754 0.24151088 0.21237832 0.16861455
000010 bf 22 5e bb 61 05 15 be 55 20 44 be 6d e0 39 3d
       -0.0033895222 -0.14552833 -0.19152959 0.045380045
000020 12 9d 1e bd c4 76 32 3e 63 d1 41 be d4 d5 53 3e
       -0.038724013 0.17428118 -0.18927531 0.20687038
000030 fa 18 34 3a 86 e4 54 be 64 5e 84 3e 50 78 f0 3d
       0.0006870177 -0.207903 0.25853264 0.11741698
000040 1f c1 4f 3d 61 fd 64 be c4 c0 c7 bd c5 7f 77 be
       0.050721284 -0.22362281 -0.09753564 -0.24169834
000050 ba 33 1b be fb 08 67 be 81 78 d5 3d ae 9f b2 bd
       -0.15156451 -0.2256202 0.10423375 -0.08721863
000060 59 67 da 3d 22 a8 63 3e 60 0a e1 bd 5b d8 27 3d
       0.10664243 0.22232106 -0.10988307 0.040977817
000070 7a b5 05 be 82 5e be bd 59 b3 1e 3e 39 5d c0 bd
       -0.13057509 -0.0929537 0.15498103 -0.09392781
000080 c0 f3 22 3d 75 48 f1 3d 61 6e 20 be 66 6c 46 be
       0.03978324 0.11781398 -0.15667106 -0.19377288
000090 ce 43 53 3d 76 42 2c be 5c 6e 39 3d b6 8e aa bc
       0.051578335 -0.16822228 0.045271263 -0.020820003
0000a0 59 21 17 bd 11 bc 9b 3e 38 d1 75 3b 4d 39 ad bc
       -0.036897037 0.3041692 0.0037508737 -0.021145487
0000b0 ff 6c 27 3e cf 25 ab bd d8 7b 5c bd 35 84 76 bd
       0.16350172 -0.08356821 -0.053829044 -0.060184676
0000c0 b0 58 7d bb fa 81 cb bd 9b 42 40 be 83 9a 89 bd
       -0.0038657598 -0.099369004 -0.18775408 -0.06718924
0000d0 49 c8 16 be 14 81 d3 3b 8d ad f4 3d 8f 08 8a 3c
       -0.1472484 0.0064545963 0.11947165 0.016849784
0000e0 8f 0a 31 be 3f de 9b 3c ce 7b d1 3d 57 5b 23 be
       -0.17289184 0.019026874 0.10228692 -0.15952812
0000f0 6e 91 fc 3d 87 4f 23 3c 88 7e 12 3e 4e 48 0f 3e
       0.12332426 0.009967691 0.1430608 0.13992426

bias_hh_l0 f4 [64]
000000 00 b2 58 3e c4 85 3d 3e 98 db 40 bc 72 1a 4a 3e
       0.21161652 0.18508059 -0.011771105 0.1973665
000010 99 81 b0 ba ba 94 e8 3d ff 8b dd 3d 4a 22 1f 3e
       -0.0013466357 0.11356492 0.10817718 0.15540424
000020 e3 05 cd 3d c6 ad be 3c aa 8b 53 3e 7e 3e e1 3d
       0.100108884 0.023276221 0.20658746 0.109982476
000030 d7 d8 f4 bd 05 15 d6 3d 11 03 3f 3e 71 3e 5c 3e
       -0.119554214 0.10453228 0.18653513 0.21508195
000040 07 b0 24 3d e5 fa 21 be 24 6c b3 bd 9d 64 13 3e
       0.040206935 -0.15818365 -0.087608606 0.1439385
000050 bc 3c 58 3e 15 48 36 be 49 d2 c5 3d bd ff 0b 3e
       0.21116918 -0.17800935 0.09659249 0.13671775
000060 0c 92 36 3e 1a 37 d2 bd 6f 9e 5a be a7 1b 6b 3b
       0.1782915 -0.10264416 -0.213495 0.0035874636
000070 ce 8c 06 be 8d ca 29 be 8a f4 87 be 0b 52 22 3e
       -0.1313965 -0.16581173 -0.26553756 0.1585161
000080 ad 0b 04 be ce ff 82 bd 7c 56 48 3d 78 40 6c be
       -0.12895079 -0.06396447 0.048910603 -0.23071468
000090 76 09 00 3e 9b 04 5f be 1d 39 1f be 86 91 b5 3d
       0.12503609 -0.217791 -0.1554913 0.08865647
0000a0 cd ec 56 3e b0 b8 97 bd ad 18 54 be e7 54 87 be
       0.2098877 -0.07408273 -0.20712538 -0.26431963
0000b0 71 f8 c9 bd 7c e1 f9 bd 20 a1 26 3d e8 17 4f be
       -0.098618396 -0.12201211 0.040681005 -0.20223963
0000c0 1c d1 66 be 70 7d 28 be 5d 5b 58 3e 07 f4 ab 3d
       -0.22540706 -0.164541 0.21128602 0.08396154
0000d0 01 51 eb 3d 61 ec 2d 3d 70 86 f7 bd 4c 35 59 bc
       0.1149006 0.042461757 -0.12086189 -0.013257336
0000e0 9e 5c 0a 3e 7c ec 78 3e 03 b5 39 3d 02 94 80 bd
       0.13511893 0.24308962 0.04533864 -0.0627823
0000f0 8e e7 15 be 63 8b 3c be 7f 08 80 3e 02 29 a8 3d
       -0.14639112 -0.18412547 0.25006482 0.082109466

weight f4 [2, 16]
000000 74 0f 7a 3e ec a6 d1 be 5c 1d 3f be 68 fb 2e be
       0.24419957 -0.40947664 -0.18663543 -0.17088091
000010 7c c6 29 3e 9f b7 17 be c3 90 76 be 0a 76 aa 3e
       0.16579622 -0.1481614 -0.2407866 0.33293182
000020 fd 95 ac be 4c d9 7f 3e f0 de 72 be 42 fb f3 3d
       -0.33708182 0.24985236 -0.23717856 0.11913158
000030 df 41 b4 be 4c 42 42 be 1f b7 ae 3e 6c dd ae be
       -0.35206506 -0.18970603 0.34124085 -0.34153306
000040 27 2c db bd f7 b8 f2 3d 60 07 ab 3e ca c7 81 3d
       -0.10701781 0.118516855 0.33404064 0.06336935
000050 39 28 9d be 25 62 b5 3e 23 ce 2a 3b f3 b7 96 bd
       -0.3069475 0.3542644 0.0026062808 -0.07359304
000060 73 b0 11 3e a4 f6 46 be 6b 2a a6 3e 9d 90 71 bd
       0.14227466 -0.19430023 0.32454237 -0.058975805
000070 3c 03 cc 3e 85 a7 de 3d 07 e0 be be 6f db 52 3e
       0.39846218 0.108717956 -0.37280294 0.2059152

bias f4 [2]
000000 32 f8 d5 3e e8 c5 57 bf
       0.4179092 -0.84286356
