models/seq2seq-20210108-140539.pt (torch, 41055 bytes, 6 tensors)

weight_ih_l0 f4 [64, 128]
0	0x3e5caab0	0.21549487
1	0xbd2ebe47	-0.04266193
2	0x3dde60bf	0.108582966
3	0x3d9429be	0.07234524
4	0x3d8d9931	0.069139846
5	0xbe47ac3e	-0.19499299
6	0xbe5bdaa6	-0.21470127
7	0xbe34d5ed	-0.17659731
8	0xbe3543c2	-0.17701629
9	0xbe5bb074	-0.2145403
10	0x3e4ead4e	0.20183298
11	0xbe411ebe	-0.18859383
12	0x3dea0a58	0.11427754
13	0xbc199551	-0.009373979
14	0xbe0357cb	-0.12826459
15	0x3e0335d5	0.12813504
16	0xbd8d0502	-0.06885721
17	0x3e2f07d1	0.17092825
18	0xbe060ffa	-0.13092032
19	0xbce90783	-0.028445965
20	0xbe753a99	-0.23948134
21	0x3e74c0f8	0.23901737
22	0x3cecb190	0.028893262
23	0x3dd5f825	0.104477204
24	0xbe5035ba	-0.20332995
25	0x3d07e339	0.03317568
26	0x3e1bb1fd	0.15204616
27	0xbc60904c	-0.013706278
28	0x3e3ee997	0.18643795
29	0x3da0d2b8	0.078526914
30	0x3dba5845	0.09098867
31	0xbd7cf242	-0.061754473
32	0x3e602011	0.21887232
33	0x3e6fd521	0.23421146
34	0xbe3ea702	-0.18618396
35	0x3e328ade	0.17435786
36	0x3e6a138f	0.22859024
37	0x3e6af3a9	0.22944511
38	0x3d396d6d	0.045270372
39	0x3e49a71f	0.19692658
40	0x3dfbb523	0.122904085
41	0xbd827012	-0.06369032
42	0x3e12c328	0.14332259
43	0x3cc33393	0.023828303
44	0xbddcc2ab	-0.107793175
45	0x3e175e56	0.1478208
46	0xbd2a8c09	-0.041637454
47	0x3e3a3f24	0.18188149
48	0x3de89484	0.11356452
49	0x3dab990f	0.08378803
50	0x3d3c3821	0.045951966
51	0xbb9ae74a	-0.004727279
52	0xbde1565f	-0.11002802
53	0xbca5639c	-0.020189099
54	0x3e2d2db2	0.16911963
55	0xbd0cd111	-0.03437907
56	0x3e43e574	0.19130498
57	0xbe6ca8fc	-0.23111337
58	0x3df6a7c7	0.1204372
59	0x3e10c2b2	0.1413677
60	0x3e1cba3e	0.15305421
61	0x3e4d2986	0.20035371
62	0xbe077fec	-0.13232392
63	0x3d7ecce8	0.062207133
64	0xbca6e166	-0.02037115
65	0x3c6b69c0	0.0143684745
66	0xbe17ac6c	-0.14811867
67	0xbdf96523	-0.121774934
68	0xbe12d8b9	-0.14340486
69	0x3e6e0fb0	0.23248172
70	0x3ddbd5bc	0.10734126
71	0x3daa3ae9	0.083120175
72	0x3e6c5852	0.23080567
73	0xbe2d4f2b	-0.16924731
74	0xbd848085	-0.06469826
75	0x3dd3fcd2	0.10350956
76	0xbdfb3c40	-0.12267351
77	0x3dae9074	0.08523646
78	0x3deceba2	0.11568381
79	0xbd899d93	-0.06719508
80	0xbd7b16bd	-0.06130098
81	0xbe3045f7	-0.1721419
82	0xbd88e9f0	-0.06685245
83	0x3e5cd9e7	0.21567498
84	0x3c94e46c	0.018175326
85	0xbe4ed9ca	-0.20200267
86	0xbdc0cca8	-0.09414035
87	0xbe3eee04	-0.18645483
88	0x3ce3a556	0.0277888
89	0x3df1d7cf	0.1180874
90	0x3dd124f7	0.102121286
91	0xbe292334	-0.16517335
92	0x3e429a7f	0.19004248
93	0x3e068161	0.13135292
94	0xbc0fffc1	-0.008789004
95	0xbe217877	-0.1576861
96	0x3e74c652	0.23903778
97	0xbe2f4642	-0.17116645
98	0xbcfa8713	-0.030581987
99	0x3d5aadaa	0.053388275
100	0xbd5fac74	-0.054607823
101	0x3e18f1e2	0.14936021
102	0x3e57ca6c	0.21073312
103	0xbd2d2f3b	-0.04228137
104	0xbbcc5c72	-0.0062366063
105	0x3e319993	0.1734374
106	0x3e80b197	0.2513549
107	0xbd45af9c	-0.048263177
108	0x3ddeea59	0.10884542
109	0x3ddae392	0.10687937
110	0xbd9eee2f	-0.07760274
111	0xbe0704d0	-0.1318543
112	0xbcca2fea	-0.02468105
113	0x3d132251	0.0359214
114	0x3c2d0792	0.010560887
115	0xba84dd62	-0.0010136778
116	0xbcff5b92	-0.031171594
117	0xbd207e00	-0.039182663
118	0x3db62f4e	0.088957414
119	0x3e6c78b5	0.23092921
120	0xbdd8dad7	-0.105886154
121	0x3ca3a79c	0.019977383
122	0xbcd83f1b	-0.026397279
123	0x3dc7dcfc	0.09758946
124	0xbd8112ff	-0.06302451
125	0x3e22f365	0.1591316
126	0x3e3abdf2	0.18236521
127	0xbdd33b58	-0.10314053
128	0x3e462654	0.19350559
129	0xbd947e3b	-0.07250639
130	0x3e1dd61d	0.15413709
131	0xbe668ab3	-0.22513847
132	0x3e2d7190	0.16937852
133	0x3b8c6500	0.004284501
134	0xbdb739cc	-0.08946571
135	0xbdd30532	-0.10303725
136	0x3e381ca6	0.17979679
137	0x3e3f35db	0.18672888
138	0x3c89d7b9	0.016826497
139	0xbe464744	-0.19363123
140	0xbe5e40d2	-0.21704414
141	0xbd7f1bb1	-0.062282268
142	0x3e453554	0.19258624
143	0x3da2d0c7	0.07949977
144	0xbe5c14b5	-0.21492274
145	0x3c751c9a	0.014960432
146	0x3ca5c1e4	0.020234056
147	0x3e4d1e57	0.20031105
148	0xbe63103f	-0.22174166
149	0x3d2dd491	0.042439047
150	0xbe61f335	-0.22065432
151	0x3dde03f4	0.10840598
152	0xbc0b6960	-0.00850901
153	0xbe759ee6	-0.23986396
154	0x3e700295	0.23438485
155	0xbd229c11	-0.039699618
156	0xbe4c8c8f	-0.19975494
157	0x3e191a7a	0.14951506
158	0xbe355260	-0.17707205
159	0x3dea6937	0.114458494
160	0xbe12a67c	-0.14321321
161	0x3e04a321	0.12952854
162	0xbd800320	-0.06250596
163	0x3dd76124	0.10516575
164	0x3cbc292d	0.022968853
165	0x3d8f589b	0.06999322
166	0xbe7c1f2d	-0.24621268
167	0x3e43c2ef	0.1911733
168	0xbda3776c	-0.07981762
169	0x3e390793	0.18069296
170	0x3d9b1075	0.07571498
171	0x3e5847bd	0.21121116
172	0xbe0470f8	-0.12933719
173	0x3d79ebde	0.061015956
174	0xbc241c1f	-0.01001647
175	0x3dcbfa8f	0.099599
176	0xbe6267c2	-0.22109893
177	0xbe147a01	-0.14499666
178	0x3cf7be06	0.030241977
179	0xbe1d91a3	-0.15387587
180	0x3ce582f2	0.028016541
181	0x3e4bafaa	0.1989123
182	0x3e250f9b	0.16119234
183	0xbdb242da	-0.08704157
184	0x3e3ff1bb	0.18744557
185	0x3e37860c	0.17922229
186	0x3e4bec9e	0.19914481
187	0x3e314a93	0.17313604
188	0x3e4fb4a5	0.20283754
189	0xbc88c6c3	-0.01669634
190	0xbe7912d1	-0.24323584
191	0xbe7d8564	-0.24757916
192	0xbe5ccc98	-0.21562421
193	0xbd8ecdc4	-0.069728404
194	0x3de467ad	0.11152587
195	0xbe366aa5	-0.17814119
196	0xbd43d529	-0.047810707
197	0xbe1801a4	-0.14844376
198	0xbe7c11b3	-0.24616127
199	0x3deb6a04	0.1149483
200	0x3dee0188	0.11621386
201	0xbd5a8aa7	-0.053354885
202	0x3dd06213	0.10174956
203	0x3e683281	0.22675516
204	0xbe140193	-0.14453726
205	0xbe16eb25	-0.14738138
206	0xbd82392f	-0.06358563
207	0x3e1e456d	0.15456171
208	0xbd9cf3e3	-0.07663705
209	0x3e83e34c	0.2575935
210	0x3e01e5ff	0.12685393
211	0xbe36ee19	-0.17864265
212	0x3dc1ebdc	0.09468815
213	0xbdc3cea0	-0.09560895
214	0xbe23c6e8	-0.15993845
215	0xbd38b691	-0.045095984
216	0xbe104bcd	-0.14091416
217	0x3da56200	0.08075333
218	0x3d9c499a	0.07631226
219	0x3cd36ba0	0.025808156
220	0xbda189b5	-0.07887594
221	0x3dcb7e9f	0.099362604
222	0xbd4d8c1f	-0.050182458
223	0x3c76a7a5	0.015054618
224	0x3e4ec70e	0.20193121
225	0x3e7ebdc1	0.24877073
226	0xbc40dc3a	-0.011771256
227	0xbc533e40	-0.0128932595
228	0xbde6888b	-0.11256512
229	0xbdd4d20c	-0.10391626
230	0xbd342fbc	-0.043990836
231	0xbe4d6783	-0.20059018
232	0xbda88b43	-0.08229687
233	0xbd215817	-0.03939065
234	0x3dda25c4	0.106517345
235	0x3df17b84	0.11791137
236	0xbe2ca572	-0.16859987
237	0x3df48c6b	0.11940845
238	0xbce53794	-0.027980603
239	0x3d1ddb0d	0.03853898
240	0x3e643a61	0.22287895
241	0xbcf5ffba	-0.030029166
242	0x3e1d5b7f	0.15366934
243	0xbe75ee52	-0.24016693
244	0x3e642a94	0.22281867
245	0x3e452b71	0.19254853
246	0x3dd22f1d	0.102628924
247	0x3df8bf36	0.121458456
248	0x3dae4ea1	0.08511091
249	0xbe7489ab	-0.23880641
250	0xbd4f99b6	-0.0506837
251	0xbe26bab6	-0.16282162
252	0xbd8a6d50	-0.06759131
253	0x3d74d720	0.05977547
254	0xbdc8d7a3	-0.098067544
255	0x3d9ae000	0.07562256

weight_hh_l0 f4 [64, 16]
0	0x3e17ad68	0.14812243
1	0xbd4876e7	-0.04894152
2	0x3e1a57b1	0.15072514
3	0x3e4506a3	0.19240813
4	0xbe520c7c	-0.20512575
5	0x3d552851	0.0520404
6	0xbd2a55c3	-0.041585695
7	0xbdb7b9b2	-0.089709654
8	0xbaee5412	-0.0018183014
9	0x3e23fcea	0.16014448
10	0xbda7e2a7	-0.081975274
11	0xbe223925	-0.15842111
12	0x3c6a4a39	0.014299923
13	0x3e32a704	0.17446524
14	0x3da26b0a	0.07930572
15	0xbdaf9a21	-0.0857432
16	0xbd354a4d	-0.044260312
17	0x3e0d73d8	0.13813722
18	0x3c77ae5e	0.015117256
19	0x3e16430c	0.14674014
20	0x3e67a047	0.22619735
21	0x3dd46cb5	0.10372297
22	0x3c99fb99	0.018796729
23	0xbe0ef618	-0.13961065
24	0xbe5383fd	-0.20655818
25	0xbe0704f5	-0.13185485
26	0xbcf422ca	-0.029801745
27	0xbd5b82c9	-0.053591523
28	0xbbd67202	-0.0065443525
29	0x3dee9b86	0.116507575
30	0xbe3f295f	-0.18668126
31	0xbdc9ffc1	-0.09863234
32	0x3c196c4f	0.009364202
33	0xbdaa6150	-0.08319342
34	0x3d23d075	0.039993722
35	0x3e00f570	0.12593627
36	0xbd2821e3	-0.041047942
37	0x3e30c798	0.17263639
38	0xbde97edb	-0.11401149
39	0xbe4fa168	-0.20276415
40	0xbd399b26	-0.045313977
41	0x3c972d03	0.01845408
42	0xbcb34897	-0.0218852
43	0x3e260571	0.16213013
44	0x3e3a756b	0.18208854
45	0xbe6d104c	-0.23150748
46	0x3e6f5c37	0.23375021
47	0x3d9528ef	0.07283198
48	0x3e5068e2	0.2035251
49	0x3e627886	0.22116289
50	0xbdd68dba	-0.10476251
51	0xbe187c6f	-0.14891218
52	0xbe15cebd	-0.14629646
53	0xbe39afad	-0.18133421
54	0x3d3ccbc9	0.046092782
55	0xbe200485	-0.15626724
56	0xbd949bf7	-0.072563104
57	0x3e57869a	0.2104744
58	0x3e4feca8	0.20305121
59	0xbe164986	-0.14676484
60	0xbe435ff2	-0.19079569
61	0xbe4bf83c	-0.19918913
62	0xbd9dce96	-0.07705419
63	0x3e0a0bdd	0.13481088
64	0xbc990777	-0.018680317
65	0xbe4090ea	-0.1880528
66	0x3e5a78da	0.21335164
67	0x3cbc3539	0.022974597
68	0x3dfeabc3	0.12435105
69	0x3e2b116a	0.16705862
70	0x3c6eb040	0.014568388
71	0x3d4597fc	0.048240647
72	0xbe78a405	-0.24281318
73	0x3e0283c0	0.12745571
74	0x3e71b851	0.23605467
75	0x3e06672c	0.13125294
76	0xbd8cf870	-0.06883323
77	0xbe4d3c4f	-0.20042537
78	0x3d575b8e	0.052577548
79	0xbde65b4c	-0.11247882
80	0x3d05155a	0.032491066
81	0x3ddaad4a	0.106775835
82	0x3e433f5a	0.19067135
83	0x3e66a20b	0.22522752
84	0xbdc483dc	-0.09595463
85	0xbe67b65f	-0.22628163
86	0xbe3f344c	-0.18672293
87	0xbe21f902	-0.15817645
88	0x3e6a1978	0.22861278
89	0x3bf59345	0.0074943625
90	0xbe0ab128	-0.13544142
91	0xbe186fc7	-0.1488639
92	0x3d22b122	0.03971971
93	0x3b2b5a36	0.00261463
94	0xbe4e4a46	-0.2014552
95	0xbdaabfbc	-0.08337352
96	0xbe597b99	-0.21238555
97	0x3e1a91ad	0.15094633
98	0x3bb902a7	0.005646068
99	0xbe6d2190	-0.23157334
100	0xbda23f7b	-0.07922264
101	0x3e16b77b	0.1471843
102	0x3da7c15f	0.081911795
103	0x3da39cb2	0.07988872
104	0xbe07a0e2	-0.13244966
105	0xbd3b56af	-0.045736965
106	0x3e65cccb	0.22441404
107	0x3da11df3	0.078670405
108	0xbd90b5a9	-0.07065899
109	0xbe64a1a1	-0.22327282
110	0xbd023069	-0.03178445
111	0x3e196d68	0.14983141
112	0x3e707bad	0.23484679
113	0xbe431a8a	-0.19053093
114	0x3c871c6b	0.016493043
115	0xba98c8f8	-0.0011656573
116	0x3e71d98d	0.23618145
117	0xbdb3bd0a	-0.08776291
118	0xbe2d3055	-0.16912968
119	0xbe1847b2	-0.148711
120	0x3e405449	0.18782152
121	0x3e481ade	0.19541499
122	0x3daa8290	0.08325684
123	0x3d8c5cd6	0.068536445
124	0xbd4c3a6a	-0.049860395
125	0x3e079524	0.13240486
126	0x3d7c1dcf	0.061551865
127	0xbd10197f	-0.035180565
128	0xbe28e1f3	-0.16492443
129	0xbe72adf1	-0.23699166
130	0x3e6ad8f9	0.22934331
131	0xbb8259fa	-0.003978011
132	0xbd60f1e1	-0.054918174
133	0xbdc18591	-0.09449304
134	0xbe62395c	-0.22092193
135	0xbd6bf595	-0.057607252
136	0xbe220f57	-0.15826164
137	0x3e395a0e	0.1810076
138	0xbc93b459	-0.018030332
139	0x3dca9867	0.0989235
140	0x3d893475	0.066994585
141	0xbe459385	-0.19294555
142	0x3d99d691	0.075116284
143	0xbe7eb403	-0.24873357
144	0xbe061813	-0.13095121
145	0xbdacbd2f	-0.084345214
146	0xbdd84570	-0.10560119
147	0x3d015b1f	0.03158104
148	0xbe232170	-0.15930724
149	0xbe15d5f8	-0.14632404
150	0xbe1df894	-0.15426856
151	0xbe2d7382	-0.16938594
152	0x3e6dfe2a	0.23241487
153	0xbd237060	-0.03990209
154	0xbd908b38	-0.07057804
155	0xbdfb8853	-0.12281861
156	0x3e4a3d2c	0.19749898
157	0x3dc5b9c5	0.09654573
158	0x3cfe2437	0.031023128
159	0x3d216b86	0.039409183
160	0xbd809ad2	-0.0627953
161	0xbe67959a	-0.22615662
162	0xbe62781e	-0.22116134
163	0x3dcad9eb	0.09904846
164	0x3df049f2	0.11732854
165	0xbdeeed86	-0.11666398
166	0xbe10ba30	-0.14133525
167	0x3dc446b5	0.09583799
168	0xbd9e61a1	-0.07733465
169	0x3dca6846	0.0988317
170	0xbe6c3a5d	-0.23069139
171	0xbe2b36ff	-0.16720198
172	0x3e6dc9c1	0.23221494
173	0xbd86946f	-0.0657128
174	0xbe7c7325	-0.24653299
175	0x3e4f903b	0.20269863
176	0xbc2268cc	-0.009912681
177	0xbe7e603f	-0.24841402
178	0xbe64e7dc	-0.22354072
179	0x3dce1685	0.10062889
180	0x3dd2fd83	0.1030226
181	0x3dc85482	0.097817436
182	0x3e49ce0b	0.19707505
183	0x3dacbf69	0.08434946
184	0x3e5d6cf1	0.21623589
185	0x3e2391e8	0.15973628
186	0x3e6d75ec	0.23189515
187	0x3dddf9b3	0.10838642
188	0xbc9808f2	-0.018558953
189	0xbd091012	-0.03346259
190	0x3d8e09c9	0.0693546
191	0xbdf775a1	-0.12082983
192	0x3e11c15e	0.1423392
193	0xbe0747ec	-0.1321103
194	0x3e6eccaa	0.2332026
195	0x3e0e9856	0.13925299
196	0xbe6c204b	-0.23059194
197	0x3d803eb9	0.062619634
198	0x3cd354c4	0.025797255
199	0xbd9fe262	-0.07806851
200	0xbe2a42dc	-0.16627067
201	0x3dac4813	0.084121846
202	0x3e6cd29d	0.23127218
203	0x3e6d1695	0.23153146
204	0xbe1bdba6	-0.15220508
205	0xbe0be6db	-0.13662283
206	0xbe1071e4	-0.14105946
207	0xbdd484ba	-0.10376878
208	0xbc6b5915	-0.0143645005
209	0xbdbb1142	-0.09134151
210	0xbe2c626c	-0.1683442
211	0xbda92451	-0.0825888
212	0xbdf880ba	-0.12133928
213	0xbd016143	-0.031586897
214	0x3e19bc82	0.15013316
215	0x3d62b97e	0.05535268
216	0x3e6f1916	0.23349413
217	0xbb064006	-0.0020484938
218	0xbe05c65d	-0.13063951
219	0xbe3b6aec	-0.18302506
220	0xbdfe6f6b	-0.12423595
221	0x3e733e7f	0.23754309
222	0x3e0fb05f	0.14032124
223	0xbe024cf5	-0.1272467
224	0x3e3afee2	0.18261293
225	0xbcac6f84	-0.021049269
226	0xbdc26787	-0.094924025
227	0x3e243d71	0.16039063
228	0x3cbe1336	0.02320252
229	0x3d5fb216	0.054613195
230	0xbe66d9ce	-0.22544023
231	0x3dc3247d	0.09528444
232	0xbc39b4d0	-0.011334613
233	0xbe79e9cb	-0.24405591
234	0x3e199a37	0.15000235
235	0xbe7455eb	-0.238609
236	0xbdd4e2d2	-0.10394825
237	0x3e2c530e	0.16828558
238	0xbda32631	-0.07966269
239	0xbe4f55dd	-0.20247598
240	0x3daf6b20	0.08565354
241	0xbd4d316d	-0.050095964
242	0xbe450a64	-0.19242245
243	0x3dc87449	0.09787805
244	0xbd94155d	-0.07230637
245	0xbddb1fc8	-0.10699421
246	0x3d5e4a7b	0.05427025
247	0xbd8276f0	-0.06370342
248	0xbd915683	-0.07096579
249	0xbe2d2b7e	-0.16911122
250	0x3e029159	0.12750758
251	0x3d9844b7	0.07434981
252	0xbdce06b5	-0.10059873
253	0xbde451d2	-0.111484185
254	0x3e381c6f	0.17979597
255	0xbe19a9a1	-0.15006115

bias_ih_l0 f4 [64]
0	0x3e88a783	0.266903
1	0xbe221973	-0.1583002
2	0xbe8155ef	-0.25260875
3	0x3e776d93	0.24162893
4	0xbd494dce	-0.049146466
5	0x3d673c07	0.05645373
6	0xbd4ca055	-0.049957592
7	0x3e8d9673	0.27653846
8	0x3e07b4d4	0.13252574
9	0x3e3a5221	0.18195392
10	0xbe24f958	-0.16110742
11	0xbd4330ef	-0.04765409
12	0xbe7002ca	-0.23438564
13	0x3e209373	0.15681247
14	0x3da17268	0.078831494
15	0xbdfa1118	-0.122102916
16	0x3dfd100c	0.12356576
17	0xbe199fc3	-0.1500235
18	0xbe775a39	-0.24155511
19	0xbe2c86ce	-0.16848299
20	0x3e456faf	0.19280885
21	0x3e21a146	0.15784177
22	0x3e5d12da	0.21589223
23	0x3e4f8d1a	0.2026867
24	0xbd2fdfdd	-0.042938102
25	0x3de74674	0.11292735
26	0x3e108b1d	0.14115568
27	0xbe159461	-0.14607383
28	0xbd500022	-0.050781377
29	0x3d45d101	0.048295025
30	0xbe5454f1	-0.20735528
31	0x3e3c94cc	0.18416137
32	0x3e092998	0.13394773
33	0xbde90c51	-0.11379302
34	0x3e668084	0.22509962
35	0xbe54092b	-0.20706622
36	0x3d1d96a4	0.03847374
37	0xbe56fe65	-0.20995481
38	0xbde9885e	-0.11402963
39	0x3e1c4902	0.15262225
40	0xbe7c28fc	-0.2462501
41	0x3e39194e	0.18076059
42	0x3ca12019	0.019668626
43	0x3bf7e023	0.007564561
44	0x3e50e1b0	0.20398593
45	0x3e0cbb0e	0.1374323
46	0x3c92fb3a	0.01794206
47	0xbe36b864	-0.17843777
48	0x3e4cb53c	0.1999101
49	0x3d5c4530	0.05377692
50	0x3df41a50	0.11919081
51	0x3df4a0ba	0.11944719
52	0x3e27a631	0.1637199
53	0xbd1ca195	-0.038240034
54	0x3e6f7b87	0.23386966
55	0x3db0d311	0.08634008
56	0xbe30fde2	-0.17284349
57	0x3e54b97d	0.20773883
58	0xbe00ed73	-0.1259058
59	0x3d2b6f25	0.041854043
60	0x3e1d5ae6	0.15366706
61	0x3d32af26	0.043624066
62	0xbb5e910a	-0.0033960962
63	0x3e0df490	0.13862824

bias_hh_l0 f4 [64]
0	0x3e7612f2	0.24030665
1	0x3e5e9a2b	0.21738498
2	0x3e2bcbb0	0.1677692
3	0xbaaed196	-0.0013337608
4	0x3ddb84ff	0.10718726
5	0xbe587c78	-0.21141231
6	0x3e0f9d8c	0.14024943
7	0xbdd0b639	-0.10191006
8	0xbe11bdda	-0.14232579
9	0xbc58ccef	-0.013232454
10	0x3e5d777a	0.21627608
11	0x3d5d4b32	0.05402679
12	0x3e3730e4	0.17889744
13	0xbb81975b	-0.0039548106
14	0x3e4c7677	0.19967066
15	0x3e7a0d66	0.24419174
16	0xbd21b0c4	-0.039475217
17	0xbe22159f	-0.1582856
18	0xbe76e503	-0.24110799
19	0x3db6a79f	0.0891869
20	0x3dec44e9	0.11536581
21	0x3e4732f6	0.19453034
22	0xbe0619ea	-0.13095823
23	0xbd35f3d9	-0.044422004
24	0x3e813485	0.25235382
25	0xbe70d7cf	-0.23519824
26	0xbdbe33f0	-0.0928725
27	0xbe4e1601	-0.20125581
28	0xbcbd62df	-0.023118434
29	0xbe467162	-0.1937919
30	0xbc326b38	-0.010889821
31	0x3e38ce96	0.18047556
32	0x3d2f295f	0.042764064
33	0xbe236615	-0.1595691
34	0xbd7bdaf8	-0.06148812
35	0x3df2a78e	0.11848365
36	0x3d41f81f	0.047355767
37	0x3e3a6279	0.18201627
38	0x3e0b33e2	0.1359401
39	0xbd8d9fe0	-0.06915259
40	0x3dfd582d	0.12370334
41	0x3e3375d9	0.17525424
42	0xbc0ea57a	-0.008706445
43	0xbe4f6b08	-0.20255673
44	0xbe2561fd	-0.16150661
45	0xbcb84bc4	-0.022497065
46	0xbe6f9522	-0.23396733
47	0x3e238b5c	0.1597113
48	0xbe325a68	-0.174173
49	0x3b418fa4	0.002953508
50	0x3d1378f1	0.03600401
51	0x3e3d0f96	0.18462977
52	0xbe2edb59	-0.17075862
53	0x3c903542	0.01760352
54	0x3e28886d	0.16458292
55	0x3dc804a2	0.09766509
56	0xbe2f144e	-0.1709759
57	0x3da8dcae	0.08245216
58	0x3dff7e76	0.124752924
59	0xbdec8d91	-0.11550439
60	0x3cf18c98	0.029485986
61	0x3e659e4a	0.22423664
62	0x3d8f91f8	0.07010263
63	0x3e35e49e	0.17762992

weight f4 [2, 16]
0	0x3e87d0ec	0.26526582
1	0xbe268ee2	-0.16265443
2	0x3df88e47	0.12136512
3	0xbe5cc5ee	-0.21559879
4	0x3e86b1f8	0.26307654
5	0xbd3e685e	-0.04648625
6	0x3e92c175	0.2866322
7	0xbf1268c0	-0.57191086
8	0xbe78c9b5	-0.24295695
9	0xbdacaafe	-0.08431052
10	0xbf0bb7b3	-0.5457718
11	0xbda3a5d5	-0.07990614
12	0x3e35d084	0.17755324
13	0xbd9c434b	-0.076300226
14	0xbe833d71	-0.25632814
15	0xbdafb5a7	-0.08579569
16	0xbeb20975	-0.3477284
17	0x3e57a6e1	0.21059753
18	0xbc4b4252	-0.012405949
19	0x3c4785b1	0.012177871
20	0xbe9d2d7d	-0.30698767
21	0xbc9ba1a3	-0.018997973
22	0xbee2bd55	-0.44285074
23	0x3e1e698e	0.15469953
24	0x3c4398c9	0.011938282
25	0x3b24665c	0.0025085425
26	0x3ec71ba0	0.38888264
27	0x3d811b1d	0.063039996
28	0x3e3a2585	0.18178375
29	0x3e2bf303	0.1679192
30	0x3e2878ae	0.16452286
31	0xbd931527	-0.07181769

bias f4 [2]
0	0x3f050013	0.5195324
1	0xbf4a2251	-0.7895861
