models/seq2seq-20210107-203845.pt (torch, 41055 bytes, 6 tensors)

weight_ih_l0 f4 [64, 128]
000000 21 10 01 3e 2f cf 3e 3e 50 68 b1 3d 09 54 ae bd
       0.12603809 0.18633722 0.08662474 -0.08512122
000010 70 06 e7 3d f8 a0 cc 3d 16 e2 85 bd cc 15 49 be
       0.11280525 0.0999164 -0.06537263 -0.19637221
000020 ee 53 d0 3d 9b 7a 06 3d bc 5b 09 3e f5 d2 18 3e
       0.10172258 0.03283177 0.134139 0.14924224
000030 e2 ec bc bc 5a cb 80 3d 8b 74 06 3e 2c b5 20 bc
       -0.023062173 0.06288786 0.13130395 -0.00980882
000040 ee ec 06 3e 7c 8f c4 bd f7 5b ae bd 6e a8 12 be
       0.13176319 -0.0959768 -0.08513635 -0.14322063
000050 83 52 22 be 70 c3 e7 bd ed c1 00 bd ec ea ee bd
       -0.15851788 -0.113165736 -0.031434942 -0.116659015
000060 00 31 01 3d 11 ff 9b 3d 35 c4 4b 3e 70 02 aa 3d
       0.03154087 0.076170094 0.19899066 0.08301246
000070 16 ae 4a be 86 38 30 be 2e 1d 2b be ba 26 cd bd
       -0.19792971 -0.17209062 -0.1671035 -0.10017152
000080 da 7e c1 3c 48 0d 37 b9 f2 c7 50 be c3 03 0e 3e
       0.023620058 -0.00017457188 -0.20388773 0.13868622
000090 c8 3d af bd 5d aa 01 3d 00 4f d7 3d 7c 56 8b bc
       -0.08556706 0.03165661 0.10513115 -0.017009012
0000a0 47 79 34 be c2 d1 ce bd 75 f7 74 bc 39 cd dc bc
       -0.17624389 -0.10098602 -0.0149515765 -0.026953327
0000b0 ed 93 2e be 00 b8 06 be 86 ec a1 3d 94 5f 98 3d
       -0.17048617 -0.13156128 0.079064414 0.07440105
0000c0 5a 90 9a 3d b9 af 3c bd 93 62 da 3d 2b 94 de 3d
       0.07547064 -0.04606602 0.10663333 0.108681045
0000d0 d6 62 4e be 82 ee a5 bd d5 0a 3a 3d 42 56 62 3e
       -0.2015489 -0.081021324 0.045420486 0.22103217
0000e0 be 1f 65 3d 45 78 52 bd 31 57 ce 3d 2e a6 d4 3d
       0.055938475 -0.05138423 0.10075224 0.10383259
0000f0 44 ab 2e 3d 22 16 08 3e 77 da 4b 3e 76 8e 32 3e
       0.0426438 0.13289693 0.19907556 0.17437157
000100 54 a0 2a be 88 13 eb 3d 1b 10 1e be 74 f7 29 3d
       -0.16662723 0.11478335 -0.15435831 0.041495755
000110 63 75 08 3d 00 6a 57 3d 1a 24 68 3e a5 f5 14 3e
       0.033315074 0.052591324 0.22670022 0.14546831
000120 d6 0e 56 be 1a af 27 3d 9f c3 72 bd c6 5f 0a 3e
       -0.20904097 0.040938474 -0.05926859 0.13513097
000130 9d 92 a9 bd 83 00 ad bd 3c e1 1e be 98 cd 64 be
       -0.082799174 -0.08447363 -0.15515608 -0.22344053
000140 f7 b0 33 3c 8b a5 75 3e c5 7f 07 3e af 54 4f 3e
       0.010967485 0.23988931 0.13232334 0.20247148
000150 07 6a 71 bd 6a fa a5 bd ee 09 35 3d 00 a1 ca 3d
       -0.058939006 -0.08104403 0.044198923 0.098939896
000160 d5 3b d6 3c 66 6f 08 3e 00 da 44 bb 74 29 9f 3d
       0.026151577 0.13323745 -0.0030037165 0.077715784
000170 80 cb 87 3c 06 f5 32 3e b3 f8 b1 bd 33 52 eb 3d
       0.016576529 0.17476282 -0.08690014 0.11490288
000180 a0 cc a7 bd 0f 51 9d 3c f6 f9 18 3e 6b d5 68 3e
       -0.08193326 0.01920369 0.14939103 0.22737662
000190 e0 94 37 be 82 e6 c0 bd 21 51 ad 3b 36 bd 2e 3e
       -0.17927885 -0.09418966 0.0052892123 0.17064366
0001a0 d3 b9 77 be fc 90 55 3d 1e df 32 3e 5c c4 ad 3d
       -0.2419198 0.05214022 0.17467925 0.08484718
0001b0 b9 6c 9c 3d 1e f7 8c 3d 5d f0 01 3e 3e aa 7a 3e
       0.07637925 0.06883071 0.12689348 0.24479005
0001c0 f7 e9 8b 3b bb 4e 16 be 7d e6 7c bd 78 00 83 bd
       0.004269834 -0.14678471 -0.06174325 -0.06396574
0001d0 1b bd 67 3e 10 44 79 be 47 a9 6a be 7d e4 c2 3d
       0.22630732 -0.2434237 -0.22916137 0.09516237
0001e0 d0 f4 d6 3c e6 f9 d0 bd 8b ee 14 be c6 c4 1a bd
       0.026239783 -0.10203914 -0.14544122 -0.037785314
0001f0 61 41 22 be 36 53 22 3e 7c bc 87 bc 82 89 62 be
       -0.15845253 0.15852055 -0.016569369 -0.22122768
000200 10 63 7c 3d d3 26 2a 3e 93 4e 94 bd 1e d2 d2 3d
       0.06161791 0.16616373 -0.07241549 0.10293983
000210 05 44 07 3e ee 23 0f be 95 7c 83 bc ed 8a e1 3d
       0.13209541 -0.1397855 -0.016050616 0.11012826
000220 97 b8 26 be 3f b7 b4 bd 21 79 08 bd 11 11 b6 3d
       -0.16281353 -0.08824014 -0.033318643 0.08889974
000230 9e 6d a3 3d 01 82 bf bd 94 03 82 3d 4b 13 0f 3e
       0.07979892 -0.09350968 0.06348339 0.13972203
000240 5a 5c 8a bd 78 23 e7 3d 5c 98 3e be 95 da f9 bd
       -0.06755896 0.11286062 -0.18612808 -0.12199894
000250 c6 16 ff 3d 02 ae 32 3e a0 31 d6 3d d3 51 08 3d
       0.124555156 0.17449191 0.10458684 0.03328116
000260 f0 d3 bf 3d db 0f e3 3b ed 1f 60 be 02 d6 df 3d
       0.09366596 0.0069293804 -0.21887179 0.109294906
000270 cf b1 63 be 71 bf 67 3e 1f 55 63 be 6e 89 8a bd
       -0.22235797 0.22631623 -0.2220044 -0.06764494
000280 f3 ca 21 be 4e cf 41 be a0 32 17 bd 03 07 61 3e
       -0.15800075 -0.18926737 -0.036913514 0.21975331
000290 6b 5c bc bd d7 23 6d 3e dd 93 c3 bd 28 97 23 3e
       -0.09197315 0.23158203 -0.09549687 0.1597563
0002a0 10 fb 63 be b7 83 b1 bc e8 e6 ed 3d ff bb 7d bd
       -0.22263741 -0.021669252 0.116163075 -0.061946865
0002b0 b3 27 54 be 1f ee 39 3e 8a 1d 14 3e d1 89 a9 bd
       -0.20718269 0.18157242 0.14464393 -0.082782395
0002c0 6c 74 3f 3d c6 e2 9c bd 9d 0d 46 be bf 22 1d 3e
       0.046741888 -0.07660441 -0.1934113 0.15345286
0002d0 da 24 28 be 00 81 00 3e 38 7a 35 3e 71 ca 32 bd
       -0.16420308 0.1254921 0.17722404 -0.043650094
0002e0 93 cf f7 bd 03 38 24 3d 5b 09 b8 bc 2a 15 23 3e
       -0.121001385 0.04009248 -0.022465399 0.15926042
0002f0 1d eb df bd e8 1e 39 3d f1 fb 9c 3d 80 47 57 be
       -0.10933516 0.04519549 0.076652415 -0.21023369
000300 79 35 ea 3d 1c 18 3b be 50 99 f0 bd cf 27 f1 3d
       0.1143598 -0.18270916 -0.11747992 0.11775171
000310 98 b0 53 be ee 0b e5 bd 0a 77 bb 3d f8 4c 20 3e
       -0.20672834 -0.11183916 0.09153564 0.15654361
000320 00 00 fd bb c7 9f f9 3d a7 6a 27 3c c2 0c 0f 3e
       -0.0077209473 0.12188678 0.010218299 0.1396971
000330 6c 5b 32 be 41 c9 00 3d 29 17 7e 3d 54 84 0a bd
       -0.17417687 0.03144193 0.062033806 -0.033817604
000340 77 be f0 3d e1 62 1f be 3d fd ae 3d 0d ab 17 be
       0.11755078 -0.15565063 0.08544395 -0.14811344
000350 06 3b 84 3d d3 62 5f 3e 9a 60 24 be 36 30 59 bd
       0.0645657 0.21815042 -0.16052476 -0.053024493
000360 8d 1a 73 3e 93 d8 27 be 88 85 0b bd 6e 62 3b 3e
       0.23740597 -0.1639121 -0.034062892 0.18299267
000370 05 a1 1d be 7b a5 9c 3b 89 0b 05 3e b7 2b a3 bd
       -0.15393455 0.004780469 0.12992682 -0.07967322
000380 bc cd d3 3d 4a 66 81 bd c5 46 6b 3e 2a 8d 14 3e
       0.10341975 -0.06318338 0.22976215 0.14506975
000390 42 39 08 3e ca 5c 20 be ca ad e0 bd 7b f4 8f 3d
       0.13303092 -0.15660396 -0.10970648 0.07029053
0003a0 9c fe 54 3e 9b f8 51 3e 5a 7d 2d be 8f bc 34 be
       0.20800251 0.20504992 -0.16942349 -0.17650054
0003b0 91 0d 56 be 5e 01 07 be 6b 15 7f be e2 65 d7 3d
       -0.20903613 -0.13184115 -0.24910514 0.105174795
0003c0 75 f6 fb bd 6f 61 09 3c 83 06 31 be 79 93 14 3e
       -0.12302867 0.008385046 -0.1728764 0.14509381
0003d0 ec 38 b6 bd a3 62 98 bd 34 2c 3f 3e 2c 93 19 be
       -0.08897576 -0.074406885 0.18669206 -0.14997548
0003e0 4a 72 15 3e 02 0d 5e be 16 f0 6c bb bc 53 50 3e
       0.14594379 -0.2168465 -0.0036153845 0.20344442
0003f0 3a 8f 5f be 20 d2 36 be c1 69 18 be 58 fa 84 bc
       -0.2183198 -0.17853594 -0.14884092 -0.016232654

weight_hh_l0 f4 [64, 16]
000000 02 41 08 be 6d 62 93 3c c8 84 15 3d de c8 27 bd
       -0.13306049 0.017991269 0.036503583 -0.040963046
000010 20 70 7c be 01 eb c4 bd 09 93 8c 3b 6d 07 dc 3d
       -0.24652147 -0.09615136 0.004289989 0.10743604
000020 00 4a b3 3d b5 6f 63 be 7f db 57 be 7d ca 51 be
       0.08754349 -0.22210582 -0.21079825 -0.204874
000030 5d 78 8e 3d 05 c3 f9 bc 2f a0 49 3d e2 fd 61 be
       0.06956551 -0.0304885 0.04922503 -0.22069505
000040 b2 fb ad ba a9 b6 96 bb 3d 8a 62 3e 9c 6f 1b 3e
       -0.0013273864 -0.0045994115 0.22123046 0.15179294
000050 e8 f5 77 3e 33 87 15 be e6 ba 80 3d f2 a1 b4 3d
       0.242149 -0.14602356 0.06285648 0.08819951
000060 f7 dc 61 be f7 ef 67 3e 93 3b 03 be 12 d3 05 be
       -0.22056948 0.22650133 -0.12815695 -0.13068798
000070 dd 28 53 bd bf 07 70 3d 58 d7 1e 3e bc 7e 78 be
       -0.051552642 0.058601137 0.15511835 -0.24267095
000080 43 1e 37 3e 75 c5 80 3d ca a1 fa 3d b1 69 68 be
       0.17882638 0.06287662 0.1223789 -0.22696568
000090 08 dd a4 3d 02 ce ab bd 59 ad d1 3d 60 01 0b 3e
       0.08049971 -0.08388902 0.102381416 0.13574743
0000a0 4f 53 47 bd e7 fe 77 3e 66 f8 4b 3e 20 59 8d bd
       -0.048663434 0.24218331 0.19918975 -0.06901765
0000b0 e2 88 e2 bd 78 16 db 3d 67 cb 65 3e b9 82 6f be
       -0.110612646 0.10697645 0.22440873 -0.2338971
0000c0 2e d0 28 3e 30 55 fc 3d 05 01 34 be b4 d1 1a 3b
       0.16485664 0.12320936 -0.17578514 0.0023623528
0000d0 65 2f 6d be 76 5e f8 bd 46 69 4e be e3 c4 4e be
       -0.23162611 -0.12127392 -0.20157346 -0.20192294
0000e0 6c 5e 06 bd 16 d5 a6 3d 34 e6 69 3e 47 f2 82 bc
       -0.03280489 0.08146112 0.22841722 -0.015984667
0000f0 13 3c 70 be 67 65 5f 3e de c6 77 be 2c a0 7c 3d
       -0.23460416 0.21816026 -0.24196956 0.06167619
000100 d7 a7 82 3e 89 24 2e 3e 58 db 7d be dd 49 1a bd
       0.25518677 0.17006125 -0.24790704 -0.037668098
000110 b2 48 eb bd 30 d7 50 be f0 9f 93 bd f6 03 b3 3b
       -0.11488475 -0.20394588 -0.0720824 0.0054631187
000120 8f 57 55 be 73 72 cb bd ce 7d ed bc ac 23 ee 3c
       -0.20834182 -0.09933939 -0.028990652 0.029069744
000130 a9 23 ba 3d 7f 04 a0 bd 4e 0d 9f 3d b9 1f 26 3e
       0.09088833 -0.078133576 0.077662095 0.16223039
000140 25 b4 05 be 13 87 a5 bd f6 bb ed 3c 9f a3 a1 3d
       -0.13057001 -0.08082404 0.02902029 0.07892536
000150 53 b6 6a bd e5 bc 53 3e 4a 3d b1 bc 74 e7 ef 3d
       -0.057302784 0.20677526 -0.02163567 0.11714068
000160 79 f9 4b be 4f e8 bc 3d ca bf c6 bc d8 5e 97 bd
       -0.19919385 0.09223997 -0.024261374 -0.07391137
000170 52 16 c4 3d e0 d3 53 3e 87 ef d0 3c 69 b4 15 bd
       0.0957457 0.20686293 0.02550484 -0.036549006
000180 fd 95 56 be 5e 71 f9 bd 89 8c 7a 3e 14 01 54 be
       -0.20955653 -0.12179826 0.24467672 -0.20703536
000190 79 d9 78 bd bd 97 65 be 3f 4d e1 bd 6d e5 39 3e
       -0.060754273 -0.22421165 -0.11001062 0.18153925
0001a0 f5 e6 70 bd 9c 34 57 3e c3 70 26 3e c9 25 14 bd
       -0.058814008 0.21016163 0.16253953 -0.036168847
0001b0 ad 6d 9d bb 81 65 9c 3d 46 3b 34 3e 7a fb e8 bc
       -0.004804334 0.07636548 0.17600736 -0.028440226
0001c0 9e 38 7f 3d 75 b7 f0 3c fe 22 c8 bd 11 f1 4b 3e
       0.062309854 0.029384354 -0.09772299 0.19916178
0001d0 33 80 0e 3c 79 71 5f be 99 ae ad bd aa 7a 7e be
       0.008697557 -0.2182063 -0.084805675 -0.2485148
0001e0 2c be 84 3e 58 21 6a be 94 e8 6a 3d a0 d9 53 3d
       0.2592634 -0.22864282 0.05735071 0.051721215
0001f0 c7 a7 ff 3d 9d 35 86 3e 67 31 17 3e 25 ac ec bc
       0.12483173 0.2621278 0.14764939 -0.028890679
000200 ea 14 c1 3d ed dd 4f 3d 6d f3 71 be 51 b0 1c be
       0.09427817 0.050748754 -0.23628016 -0.15301634
000210 3f ee 08 be fd 50 c8 bd 17 b3 cb bc 66 7f f3 3c
       -0.13372134 -0.09781072 -0.02486567 0.029723834
000220 b0 1d 36 bc cb b0 3a be 0f ec 75 3e e2 a3 af bd
       -0.0111154765 -0.18231504 0.2401583 -0.0857618
000230 fe 0d 51 be a5 14 39 be 80 54 26 be b9 35 38 3e
       -0.20415494 -0.18074282 -0.16243172 0.17989244
000240 10 71 bd bd 31 eb 60 3e eb 41 70 be 96 3a 1c 3e
       -0.092500806 0.21964718 -0.23462646 0.15256724
000250 9c 16 36 be d8 7d c7 3d d9 cb da 3b 9a 7b d2 3c
       -0.17782062 0.097408 0.0066771326 0.025693703
000260 a4 fa 4e be 1a 43 37 3e 6f 11 b5 3d d0 1c 62 bd
       -0.202128 0.17896691 0.08841216 -0.05520326
000270 0e 20 8c bd 08 29 3f 3c 88 d6 aa 3d bd 9b 98 bd
       -0.068420514 0.011667497 0.083417 -0.0745158
000280 bb ea bd bc de d3 2b 3c 44 8a 64 bd 0d 39 10 3e
       -0.023183217 0.010487525 -0.055795923 0.14084263
000290 4a be 2c 3d 7d b4 71 3e 1e 91 80 be 47 74 25 be
       0.04217366 0.23604007 -0.25110716 -0.16157638
0002a0 77 b9 7f 3e 6e a0 4c 3e 67 80 f9 bd 3d c1 4b be
       0.24973093 0.19983074 -0.12182694 -0.19897933
0002b0 70 96 30 3e 4c 9b bc 3d 16 71 2c 3e d0 1f 34 be
       0.17244887 0.09209308 0.16840014 -0.1759026
0002c0 19 6a 4b be b6 16 56 3e 9f 70 28 be 7b 4d 7b be
       -0.19864692 0.20907101 -0.16449212 -0.24541275
0002d0 b9 49 3a be 7a d8 49 3e 45 50 67 3e 43 81 86 3d
       -0.18192185 0.19711486 0.22589214 0.065676235
0002e0 21 81 e0 3b ce a0 1c 3b 5b ef 1a be ca ac 87 3d
       0.006851331 0.0023899558 -0.1513037 0.06624754
0002f0 01 a9 34 be 57 ff 42 3e ec d5 05 3e 80 c8 13 be
       -0.17642595 0.19042717 0.13069886 -0.14431953
000300 2f 48 0c 3d 09 65 f2 3d d8 3e 28 3e bc 6a 39 bd
       0.034248527 0.11835677 0.16430223 -0.045267805
000310 2d 61 3f be 4a c9 f4 bc 4e 3b 64 3d b5 ed 0c bc
       -0.18689413 -0.029881138 0.05572062 -0.008601596
000320 e5 4d 44 bd 7b f5 08 3e fd 22 0a be f0 75 15 3e
       -0.04792585 0.13374893 -0.1348991 0.14595771
000330 78 aa 9c 3d 0d 29 32 3e d3 b0 1c 3e 5c 7d 35 bb
       0.07649702 0.17398472 0.15301828 -0.0027693128
000340 91 be 6e 3d 7c 00 28 be fc 3a 12 3e 35 a3 5a 3e
       0.058287207 -0.16406435 0.14280313 0.21351321
000350 42 66 2b be cd 0b e1 3d ed 3b 78 be 0f 1e 55 be
       -0.16738227 0.10988579 -0.2424161 -0.20812248
000360 84 bf 03 be 7b b1 80 3e 89 73 1c 3e 05 e0 0f 3e
       -0.12866026 0.25135407 0.15278448 0.140503
000370 24 63 70 be fb 39 65 be f2 d1 13 be 86 45 20 3e
       -0.23475319 -0.22385399 -0.14435557 0.15651521
000380 84 59 04 be 2d 0c 0e 3e 18 28 c7 bd cb c9 56 3e
       -0.12924773 0.13871832 -0.09724444 0.20975415
000390 4e b8 63 be 5c 97 de 3d e3 b9 03 bd a0 51 79 3e
       -0.22238275 0.10868713 -0.032159697 0.24347544
0003a0 f0 35 b7 3d bc 7a 6c be d0 35 1c 3e c8 4d 08 bd
       0.08945835 -0.23093694 0.15254903 -0.033277303
0003b0 e2 ea 5d be 9c 4b 11 bd 67 c5 ba 3d 2f 75 7d bd
       -0.21671632 -0.035472497 0.09119683 -0.061879333
0003c0 fa c2 82 bc 14 fb 41 bd f8 b8 b9 bd cf 28 bf 3d
       -0.015962113 -0.047358587 -0.09068483 0.093339555
0003d0 a0 14 ab 3c 36 28 42 3e d4 27 73 be 8b 48 52 3e
       0.020883858 0.18960652 -0.23745662 0.20535485
0003e0 9e 5e ef bd c6 eb 5a be 53 cc 17 3e 32 9b 93 3b
       -0.11687969 -0.21379003 0.14824037 0.0045045847
0003f0 df b5 d3 3d 6d c2 43 3e 7f 52 0a 3e 6f e9 00 bd
       0.103374235 0.19117136 0.13508032 -0.03147262

bias_ih_l0 f4 [64]
000000 98 f8 b3 bd 5a 33 bf bd 65 2c 2b be c5 fd 4d 3c
       -0.0878765 -0.093359664 -0.16716154 0.01257271
000010 22 f9 25 bd 74 0c 08 be 23 56 38 bd 9f a7 28 be
       -0.040520795 -0.13286 -0.04500402 -0.16470192
000020 cb 2d 93 bd f6 af f1 3d 6e 9a 5b be 88 ef 07 bd
       -0.07186469 0.1180114 -0.21445629 -0.03318742
000030 29 3d 0e 3d c8 0a 22 3e 03 72 07 3e c4 3d d9 3d
       0.034726296 0.15824425 0.13227086 0.10607484
000040 c6 32 0d 3e 54 a2 26 3e 96 03 1a 3e 69 f4 85 3e
       0.137889 0.16272861 0.1504043 0.26163033
000050 33 78 fc bd ea 14 e5 bc 1b 42 5a bd 64 16 38 be
       -0.12327614 -0.027964074 -0.0532857 -0.17977291
000060 1e 9f 5e be 13 10 83 3d bd 19 52 3e 66 1a 39 3e
       -0.21740386 0.0639955 0.20517631 0.18076476
000070 9d c7 24 3e 8b 6c 57 3e 16 eb 46 3e 33 4b 6f be
       0.16091771 0.210375 0.19425616 -0.2336853
000080 ab 75 7b bd 52 35 58 be 76 3e 82 bc 18 4b 8a bd
       -0.061391514 -0.2111409 -0.015898924 -0.06752604
000090 1f 29 76 3d 8b e2 f4 bc aa 21 d4 3d 77 18 27 3e
       0.06009781 -0.02989318 0.103579834 0.16317926
0000a0 25 c1 1f 3e 2f 00 84 be a8 1a 8a 3d 59 19 00 3e
       0.15601023 -0.2578139 0.067433655 0.1250967
0000b0 ef ec f0 bd c2 cc 45 3e a0 f9 87 bd d3 00 2e 3e
       -0.117639415 0.1931639 -0.06639409 0.16992502
0000c0 7f bd 2e bd b7 fb ce bd 96 c8 d8 3c 82 83 38 be
       -0.042661186 -0.101066045 0.026462834 -0.18018916
0000d0 0e b1 af 3c 7f 31 88 3d 6b ba 23 3e 87 c4 fb 3d
       0.021446731 0.06650066 0.15989082 0.12293344
0000e0 5c 1a 05 3e 33 af 92 bd 5c 6b 4c be dd cf 5e be
       0.12998337 -0.07162323 -0.1996283 -0.21758981
0000f0 0d 72 d9 bd d1 98 73 3e b0 bf 37 bb 74 a0 16 3c
       -0.106174566 0.23788764 -0.0028037839 0.009193528

bias_hh_l0 f4 [64]
000000 e7 63 8c bc 7a 35 7b 3e 93 44 69 be b0 cc f7 bd
       -0.01713748 0.24532118 -0.22780065 -0.12099588
000010 ad 71 45 3e 83 a2 cf 3d d2 fa ce 3d 11 3e 50 3e
       0.19281645 0.101384185 0.10106434 0.20336176
000020 d5 6c ff 3d fa aa 89 3e d9 82 72 bd 0e e0 3e 3e
       0.1247193 0.26888257 -0.059206817 0.18640158
000030 2c 3d 50 be 61 a1 a9 bc cb 2b 6c 3e 38 9a 68 3e
       -0.20335835 -0.020706834 0.2306358 0.2271508
000040 06 8d 1c be 30 50 4a 3e 24 4d 59 be d2 6f e3 bb
       -0.15288171 0.19757152 -0.21220833 -0.0069408203
000050 85 60 72 3e 88 b2 e5 bc cb 24 1e 3e e2 7b c9 3d
       0.23669632 -0.028039232 0.15443723 0.09838082
000060 3b 37 ac bc 0c c9 8b 3d 73 b3 74 3e cb ba 0b be
       -0.02102243 0.06825456 0.2389658 -0.13645475
000070 78 de ba 3d 57 c0 bd 3b 9e 7d cf bd a1 3b b0 3d
       0.09124464 0.005790751 -0.101313815 0.08605123
000080 db bc df 3d 39 1a f7 bd 44 b1 08 3e 20 b7 15 be
       0.10924693 -0.120655484 0.13348871 -0.14620638
000090 92 f2 04 be ed 83 45 bd f0 be 6c be 73 1e 18 3e
       -0.12983158 -0.048221517 -0.23119712 0.14855365
0000a0 e0 29 9b 3d 6f 49 a6 3d 7b ea 78 be 6d 7c 09 bc
       0.075763464 0.08119475 -0.24308197 -0.008391482
0000b0 dc fb c3 bd a0 b7 c6 3d 6d 46 58 be a1 7a 82 3e
       -0.09569523 0.097029924 -0.21120615 0.25484183
0000c0 92 93 f0 3c de 87 f0 bd 6d b5 c6 bd 7a 6f c6 bd
       0.029367242 -0.117446646 -0.09702573 -0.09689231
0000d0 fa cf 70 bb b5 29 59 3e 1d 7d 65 bd 96 27 d2 3c
       -0.0036745057 0.21207316 -0.05602752 0.025653642
0000e0 8a f2 e4 bd 92 a4 10 be c9 28 10 be f7 3c 59 3e
       -0.11179073 -0.14125279 -0.14078058 0.21214662
0000f0 ae 3c 22 be 1b 5e 32 3e 84 07 14 3e a8 7f 8d 3c
       -0.1584346 0.17418711 0.14455992 0.017272785

weight f4 [2, 16]
000000 c0 7b e8 3e 19 ef 91 bd ce b0 97 3b f4 5b a4 be
       0.45406914 -0.071256824 0.004629231 -0.32101405
000010 5c b0 ef bd 8e a5 8b 3e 8d 3a 98 be 10 ac a1 3e
       -0.1170356 0.27274746 -0.2973217 0.31576586
000020 88 88 84 bd b2 38 d0 be b7 3b 7f 3b 90 e4 30 be
       -0.06471354 -0.40668255 0.0038945505 -0.1727469
000030 b6 fd 8b be 09 45 9e be 1e ed 83 be bb f5 36 3d
       -0.27342004 -0.30912045 -0.25766844 0.04466794
000040 17 4a a9 bc cc 33 17 bd a1 44 aa bc 91 de 97 3e
       -0.020665212 -0.03691463 -0.020784678 0.29661992
000050 c0 62 b8 3e c9 f2 e6 be f3 33 0f 3f b1 27 04 bf
       0.3601284 -0.45107105 0.55938643 -0.51623064
000060 25 ce 2a be 3b a5 d4 3e bb 09 30 be 2d f4 65 3e
       -0.166802 0.4153231 -0.17191212 0.22456427
000070 f4 ba a3 3d ba 9e 76 bd f0 67 80 3e 73 73 0f 3d
       0.07994643 -0.060209967 0.25079298 0.03502221

bias f4 [2]
000000 c1 f5 2e 3f af 2b 22 bf
       0.6834374 -0.63347906
